…
 'adam_eps': 1e-06, 'weight_decay': 0.05, 'use_old_adam': False, 'fp16_adam_stats': False, 'tpu': False, 'bf16': False, 'lr': [0.005], 'block_wise': False}, 'lr_scheduler': {'_name': 'polynomial_decay', 'warmup_updates': 50, 'force_anneal': None, 'end_learning_rate': 0.0, 'power': 1.0, 'total_num_update': 300000.0, 'lr': [0.005]}, 'scoring': {'_name': 'bleu', 'pad': 1, 'eos': 2, 'unk': 3}, 'bpe': None, 'tokenizer': None}
25-01-22 16:51:33 | I | LlamaModelDecoderLayer(
  (decoder): LlamaDecoderLayerInFairseq(
    (model): LlamaDecoderLayer(
      (self_attn): LlamaSdpaAttention(
        (q_proj): Linear(in_features=4096, out_features=4096, bias=False)
        (k_proj): Linear(in_features=4096, out_features=4096, bias=False)
        (v_proj): Linear(in_features=4096, out_features=4096, bias=False)
        (o_proj): Linear(in_features=4096, out_features=4096, bias=False)
        (rotary_emb): LlamaRotaryEmbedding()
        (q_rotary_emb): RotaryEmbedding()
        (k_rotary_emb): RotaryEmbedding()
      )
      (mlp): LlamaMLP(
        (gate_proj): Linear(in_features=4096, out_features=11008, bias=False)
        (up_proj): Linear(in_features=4096, out_features=11008, bias=False)
        (down_proj): Linear(in_features=11008, out_features=4096, bias=False)
        (act_fn): SiLU()
      )
      (input_layernorm): LlamaRMSNorm((4096,), eps=1e-05)
      (post_attention_layernorm): LlamaRMSNorm((4096,), eps=1e-05)
    )
  )
  (model): LlamaDecoderLayerInFairseq(
    (model): LlamaDecoderLayer(
      (self_attn): LlamaSdpaAttention(
        (q_proj): Linear(in_features=4096, out_features=4096, bias=False)
        (k_proj): Linear(in_features=4096, out_features=4096, bias=False)
        (v_proj): Linear(in_features=4096, out_features=4096, bias=False)
        (o_proj): Linear(in_features=4096, out_features=4096, bias=False)
        (rotary_emb): LlamaRotaryEmbedding()
        (q_rotary_emb): RotaryEmbedding()
        (k_rotary_emb): RotaryEmbedding()
      )
      (mlp): LlamaMLP(
        (gate_proj): Linear(in_features=4096, out_features=11008, bias=False)
        (up_proj): Linear(in_features=4096, out_features=11008, bias=False)
        (down_proj): Linear(in_features=11008, out_features=4096, bias=False)
        (act_fn): SiLU()
      )
      (input_layernorm): LlamaRMSNorm((4096,), eps=1e-05)
      (post_attention_layernorm): LlamaRMSNorm((4096,), eps=1e-05)
    )
  )
)
25-01-22 16:51:33 | I | task: KDTask
25-01-22 16:51:33 | I | model: LlamaModelDecoderLayer
25-01-22 16:51:33 | I | criterion: MSECriterion
25-01-22 16:51:33 | I | num. non-expert model params: 202,383,360 (num. trained: 202,383,360)
…
