…
am_eps': 1e-06, 'weight_decay': 0.05, 'use_old_adam': False, 'fp16_adam_stats': False, 'tpu': False, 'bf16': False, 'lr': [0.00015], 'block_wise': False}, 'lr_scheduler': {'_name': 'polynomial_decay', 'warmup_updates': 50, 'force_anneal': None, 'end_learning_rate': 0.0, 'power': 1.0, 'total_num_update': 300000.0, 'lr': [0.00015]}, 'scoring': {'_name': 'bleu', 'pad': 1, 'eos': 2, 'unk': 3}, 'bpe': None, 'tokenizer': None}
24-11-25 14:57:49 | I | LlamaModelDecoderLayer(
  (decoder): LlamaDecoderLayerInFairseq(
    (model): LlamaDecoderLayer(
      (self_attn): LlamaSdpaAttention(
        (q_proj): Linear(in_features=2048, out_features=2048, bias=False)
        (k_proj): Linear(in_features=2048, out_features=256, bias=False)
        (v_proj): Linear(in_features=2048, out_features=256, bias=False)
        (o_proj): Linear(in_features=2048, out_features=2048, bias=False)
        (rotary_emb): LlamaRotaryEmbedding()
        (q_rotary_emb): RotaryEmbedding()
        (k_rotary_emb): RotaryEmbedding()
      )
      (mlp): LlamaMLP(
        (gate_proj): Linear(in_features=2048, out_features=5632, bias=False)
        (up_proj): Linear(in_features=2048, out_features=5632, bias=False)
        (down_proj): Linear(in_features=5632, out_features=2048, bias=False)
        (act_fn): SiLU()
      )
      (input_layernorm): LlamaRMSNorm((2048,), eps=1e-05)
      (post_attention_layernorm): LlamaRMSNorm((2048,), eps=1e-05)
    )
  )
  (model): LlamaDecoderLayerInFairseq(
    (model): LlamaDecoderLayer(
      (self_attn): LlamaSdpaAttention(
        (q_proj): Linear(in_features=2048, out_features=2048, bias=False)
        (k_proj): Linear(in_features=2048, out_features=256, bias=False)
        (v_proj): Linear(in_features=2048, out_features=256, bias=False)
        (o_proj): Linear(in_features=2048, out_features=2048, bias=False)
        (rotary_emb): LlamaRotaryEmbedding()
        (q_rotary_emb): RotaryEmbedding()
        (k_rotary_emb): RotaryEmbedding()
      )
      (mlp): LlamaMLP(
        (gate_proj): Linear(in_features=2048, out_features=5632, bias=False)
        (up_proj): Linear(in_features=2048, out_features=5632, bias=False)
        (down_proj): Linear(in_features=5632, out_features=2048, bias=False)
        (act_fn): SiLU()
      )
      (input_layernorm): LlamaRMSNorm((2048,), eps=1e-05)
      (post_attention_layernorm): LlamaRMSNorm((2048,), eps=1e-05)
    )
  )
)
24-11-25 14:57:49 | I | task: KDTask
24-11-25 14:57:49 | I | model: LlamaModelDecoderLayer
24-11-25 14:57:49 | I | criterion: MSECriterion
24-11-25 14:57:49 | I | num. non-expert model params: 44,044,288 (num. trained: 44,044,288)
…
